model.pth (torch, 741647 bytes, 8 tensors)

weight f4 [128, 128]
000000 bd 40 21 bd 98 84 6d 3d ae 43 ef bd 05 56 51 3c
       -0.03936838 0.05798778 -0.11682831 0.012776856
000010 08 90 51 bb 05 9c 8f bd 13 ea 40 bb 7a 84 ba bd
       -0.0031976718 -0.0701218 -0.0029436394 -0.09107299
000020 f2 69 28 bd 8e ca 5c bc f9 84 bc bd d6 8c 89 bc
       -0.041116662 -0.013476027 -0.0920505 -0.016790789
000030 5e 8e ed 3c 9f 5d 3e bd e7 59 6f 3d ab df 09 3d
       0.02899855 -0.046476003 0.058435347 0.033660572
000040 ef de 8f bd 35 b2 4a bd ad f6 b1 3d cb e9 49 3c
       -0.07024943 -0.049486358 0.08689628 0.012323807
000050 3c c3 d5 bc 2e 9b e0 3c 45 4e b8 bd 44 2c a9 3b
       -0.026094072 0.027417745 -0.08999304 0.0051627476
000060 79 ad c9 3c f4 99 c2 3d 3b 4f ac 3d 37 b6 c3 3d
       0.024618851 0.095020205 0.084135495 0.09556239
000070 7e b6 6b bd b9 2c 9f bc d0 9b f5 3d cb 70 e9 3c
       -0.057547085 -0.019430505 0.119926095 0.028496167
000080 85 a0 84 3d 91 96 f2 bc 6b c4 e3 3d e6 cb 67 3c
       0.06475929 -0.029612811 0.11121448 0.014147734
000090 09 5b 08 be 96 69 79 bc 78 23 f8 3b df 45 a8 3d
       -0.13315977 -0.015222928 0.0075725876 0.08216452
0000a0 64 11 aa bd ef 38 bd bd 6b 45 2e bd 94 f8 01 3e
       -0.08304098 -0.09239375 -0.04254667 0.12692481
0000b0 04 e9 a4 bd 7f 11 0b bd 07 3f bb bd a5 dd a4 3d
       -0.08052257 -0.033952232 -0.09142881 0.08050088
0000c0 ca 60 8b bd 55 a6 b4 3c 8d 59 73 bd 7c b7 48 bb
       -0.068055704 0.02205197 -0.059411574 -0.0030626943
0000d0 ca ca ca bd 77 d6 31 bd 1d 97 56 bd c0 1c 85 38
       -0.0990196 -0.04341742 -0.052390207 6.347289e-05
0000e0 b0 89 fa 3d 3e f4 cb 3c a5 94 40 3d 1b 67 d1 3c
       0.12233293 0.024896737 0.04701676 0.02556186
0000f0 18 d6 7e 3d 83 fa ba 3d d3 23 90 3d a3 e8 91 3d
       0.062215894 0.091298126 0.07038083 0.0712445
000100 c5 3e 19 bd 2d 79 96 bd eb 91 02 3c 90 a6 08 be
       -0.037413377 -0.07347331 0.00796936 -0.13344789
000110 94 e9 0c bd 61 25 96 3d dd 5a 09 3d 19 6d 69 3d
       -0.034402445 0.07331348 0.03353392 0.05698881
000120 8a eb 45 3d 34 02 f8 bd 90 26 bc 3d e1 ff 63 3d
       0.04832033 -0.12109795 0.09187043 0.055663947
000130 a3 ca 0b 3d fa 04 21 3d c8 af a9 3d 93 d4 e1 bd
       0.034128796 0.039311387 0.08285481 -0.110268734
000140 e3 d0 e0 bc c5 ac 64 bd f1 88 b1 3c c1 9e 13 bd
       -0.027443355 -0.05582883 0.021671744 -0.03604007
000150 6d 5a a6 bc 60 4f 42 3c ac c2 94 3d 64 ed c5 3d
       -0.02030679 0.011859745 0.07263693 0.09664419
000160 e8 e3 45 3d 4c 22 a6 bd 01 85 b8 bc ec 24 84 3d
       0.04831305 -0.0811201 -0.022524359 0.06452355
000170 91 14 6f bd 8c e8 ce 3b f0 f2 47 bd 00 81 e8 bc
       -0.058369223 0.006314343 -0.048815668 -0.028381824
000180 c5 a6 92 bc 53 df 01 3d b0 07 f7 3c 94 d7 f9 3d
       -0.017901788 0.03170712 0.030155033 0.121993214
000190 1e b0 f4 bd 98 10 d2 bc 34 5b af bd 7d 0f 68 3d
       -0.11947654 -0.025642678 -0.085623175 0.056655396
0001a0 4d f9 bc 3d ba 32 57 bd 86 de e8 3c 09 70 e7 bc
       0.09227238 -0.05253861 0.02842642 -0.028251665
0001b0 58 16 20 bd 0d a7 ad bd 48 cf 85 3d 11 3f b8 3d
       -0.03908381 -0.08479128 0.065336764 0.08996404
0001c0 cc dd 0d 3d 4b 4b 5b bd 82 39 ef 3c 9f eb 19 3c
       0.03463535 -0.0535386 0.029202227 0.009394555
0001d0 07 6a 10 3e 46 8a 50 3c 3f 3c aa bc e0 93 9b bc
       0.14102946 0.012728279 -0.02078068 -0.01899141
0001e0 89 4d d3 3d 7c 51 0c 3e 2c 05 65 3c 7f 33 86 3d
       0.10317523 0.13702959 0.013978284 0.06552791
0001f0 73 9c d1 bd fa aa c9 3d d6 c0 8c 3d 1c a7 ca bd
       -0.102349184 0.09847064 0.06872718 -0.09895155
000200 ac ec b1 3b 81 c2 17 3c 4c 67 c6 bc 5c 65 a6 3d
       0.005429825 0.009262682 -0.024219178 0.081248015
000210 d7 da cc 3c 7a fd 86 bd b5 1f 59 bd 89 68 aa 3d
       0.025006695 -0.065913156 -0.053008754 0.0832072
000220 92 1a dd 3b ec 26 6e bb b5 6b 87 3c 9d 01 63 3d
       0.006747552 -0.0036339117 0.01653085 0.05542146
000230 34 cc 8f bd 88 f1 e8 bc 14 a8 82 3d c1 e3 6f 3b
       -0.070213705 -0.028435484 0.063797146 0.0036604258
000240 ad a0 32 3d e0 23 99 3d 62 4a ab 3d 22 e3 81 bd
       0.043610264 0.07477546 0.08363797 -0.0634215
000250 eb a3 76 bd ab b7 5f bd 43 60 05 3d 8e d5 b2 3d
       -0.060214918 -0.05461852 0.032562505 0.087321386
000260 fc 81 0c bc b7 45 05 3c 6f d3 8e 3d e7 68 3b bd
       -0.008575913 0.008134297 0.069739215 -0.04575434
000270 5c f7 ee bc 51 d9 83 bd 25 18 5d bd 81 47 5e bd
       -0.029170685 -0.06437934 -0.053978104 -0.05426741
000280 59 e5 ad 3d e9 24 01 bd 0c dd 11 bd 26 91 ee 3b
       0.0849101 -0.03152934 -0.035611197 0.0072804866
000290 da 04 3a 3d 06 95 49 3d 3e e7 7d bd a5 a5 a1 bc
       0.045414783 0.049214385 -0.061988108 -0.019732306
0002a0 9a c5 3a 3d a7 c1 3f 3d 5d 9f 40 bd 25 49 bb bd
       0.045598604 0.04681554 -0.04702698 -0.091448106
0002b0 39 43 26 bb 05 64 ad 3c 43 8f 65 3d e3 9b 52 3d
       -0.0025369658 0.021165857 0.05604483 0.051418196
0002c0 e5 5b 9d bd fc 0e 65 3d 49 61 ef 3c 8b 1d a8 3d
       -0.07683543 0.055922493 0.029221194 0.0820876
0002d0 99 db e7 3a a2 0b 8f 3d 96 5a 9c 3d 4e 34 6b 3d
       0.0017689347 0.06984641 0.076344654 0.05742293
0002e0 42 a2 a8 bd 30 3c 4e 3d e8 4d 41 bd 83 02 b7 bc
       -0.08234073 0.050350368 -0.047193438 -0.022340065
0002f0 98 ee b3 bc ff 71 bb bd bd 42 b6 3d 93 50 2c 3d
       -0.021964356 -0.091526024 0.08899448 0.04206903
000300 03 60 a6 3c 18 47 02 3d 88 c8 59 bd 70 2f 6b 3d
       0.020309454 0.03180608 -0.053169757 0.057418287
000310 b2 7d 2a bd 85 2d b7 bc 8a bc 47 3c 2a aa 24 bd
       -0.04162378 -0.022360573 0.012190947 -0.040201344
000320 34 2f 1a bd a0 06 9c bd 1c 66 01 bd 47 2d f5 bc
       -0.037642673 -0.07618451 -0.03159152 -0.029928816
000330 ff 4c 7b bc ba 0f 21 3c cc 6f 83 bd b8 f6 b0 3b
       -0.0153381815 0.00983041 -0.06417808 0.005400505
000340 c9 35 40 3d ba 94 f4 3c 17 7d eb bc d2 16 85 3d
       0.046926294 0.029856075 -0.02874617 0.06498493
000350 c4 f9 72 3d 82 12 0d bc 0d ba cb bd 2e b4 a5 bd
       0.059320226 -0.00861037 -0.09947596 -0.08091007
000360 53 94 f6 bc da 1f 7c bd 62 5d 62 3d 44 9e 6f 3d
       -0.030100023 -0.061553814 0.055264838 0.058500543
000370 70 65 e6 3c 97 47 b3 bd d1 3e 64 bd 91 22 ad 3d
       0.028124541 -0.08753889 -0.05572397 0.08453859
000380 68 b9 8d bd 1f 3a a7 3d db 23 3f 3d 1c f2 7c bb
       -0.06920129 0.081653826 0.046665054 -0.0038596457
000390 94 8c b5 bd 34 1f 77 bd 2d a1 29 3c 17 fa 2c bd
       -0.08864704 -0.060332492 0.010353369 -0.04223069
0003a0 94 bb a4 3d 6a 4f 77 3b 36 eb 9a bc cc 1e 3c 3c
       0.0804359 0.0037736543 -0.018910985 0.011481952
0003b0 25 b8 b4 bd 0c ba 2e 3d 20 4e d7 bc 17 32 ba 3d
       -0.08824185 0.042657897 -0.02628237 0.09091585
0003c0 4e 9b 81 3c d6 e9 aa 3d c8 13 78 3d 3b f9 68 bd
       0.015821125 0.08345382 0.06056574 -0.05687831
0003d0 ed 0b 64 3d 72 ff c0 bc c4 b7 79 3c da ba c4 bd
       0.055675436 -0.023559306 0.015241567 -0.096059516
0003e0 03 64 07 bc 43 ff bf bc 5f 29 2c bc 66 c5 3f bd
       -0.008263591 -0.023437148 -0.0105079105 -0.046819113
0003f0 58 9f af bd 31 e8 79 3d 27 51 ae 3c 1b 8b 90 bc
       -0.08575314 0.06101245 0.02127893 -0.017644456

bias f4 [128]
000000 2f 8c b3 bc 67 6d 1f 3c a5 8d b1 3c 98 b5 3f 3d
       -0.02191743 0.009730673 0.021673987 0.04680404
000010 4a 4c 82 bc 63 ea ca 3c 79 5d 1a bd 87 54 e1 3c
       -0.015905518 0.024769967 -0.0376868 0.027506126
000020 62 1d ad 3d 65 80 13 bd 01 35 41 bd d1 0b ac bc
       0.0845287 -0.03601112 -0.04716969 -0.021001728
000030 23 17 88 3d e1 3d f1 3c df dc f2 3c 14 9a 73 bd
       0.06645038 0.029448451 0.029646335 -0.059473112
000040 80 a7 09 3d 8a b0 cb 3c 6b 61 a3 bc 11 05 35 3d
       0.033607006 0.024864454 -0.019943913 0.044194285
000050 ee 51 9d bd bd ff cd bb 6f 91 09 3d 74 d6 b7 bc
       -0.076816425 -0.00628659 0.033585962 -0.022441126
000060 60 3d a6 bb a2 a3 c8 3d b7 90 a1 3c 28 96 37 bd
       -0.0050732344 0.097968355 0.019722326 -0.044820935
000070 0e 95 1f bb f9 b4 2f bd 59 f4 e7 3c 2a b2 82 3d
       -0.0024350318 -0.0428972 0.028314756 0.06381638
000080 08 b0 3d bd 06 e8 a5 3d 25 8c a2 bd 33 54 64 bd
       -0.046310455 0.081008956 -0.07936887 -0.05574436
000090 91 e6 9b 3d 21 a9 e5 3d 61 a4 69 3d 7f 0b a9 3d
       0.076123364 0.112138994 0.05704153 0.08254146
0000a0 f9 76 2f bd 45 a1 7a 3c 59 9a 25 3d 1f f1 e7 3c
       -0.04283807 0.015297239 0.0404304 0.028313218
0000b0 fa b7 90 bc 60 0d 55 3d 67 12 29 3d ca fe 40 bd
       -0.017665852 0.05201471 0.041277315 -0.047117986
0000c0 a6 19 28 3d 11 f3 a7 bc 8a 9f 93 bd f6 ca 00 bd
       0.041040085 -0.020501645 -0.07208164 -0.03144356
0000d0 36 3a 88 3d 09 29 bf 3d ae 06 7c 3d 3c 81 36 bb
       0.06651728 0.09333999 0.061529808 -0.0027848026
0000e0 68 38 86 3d b5 bd a0 bc ef 04 34 3d 4e 31 c2 3c
       0.065537274 -0.01962171 0.043950018 0.023705151
0000f0 0f db 0d 3c b8 d8 e6 bc 63 05 bd 3c aa b3 22 3c
       0.008658185 -0.028179511 0.023073858 0.009930531
000100 6b 61 34 3d 52 40 2d 3b 5e d7 58 3d 02 94 f3 3c
       0.044038218 0.0026436043 0.052939765 0.029733662
000110 3f 7d a4 bc a5 2d 97 3d 7a 43 d1 3d 2d 97 72 3b
       -0.020079253 0.07381753 0.10217948 0.0037016377
000120 67 7a ee bc 25 75 96 3d 02 61 b6 3c 0a 01 fb 3c
       -0.0291111 0.07346562 0.022263054 0.030640144
000130 03 84 64 3d a3 07 a3 3d 8c 7b c0 3d 60 6f 4a 3d
       0.05578996 0.07960441 0.09398565 0.04942262
000140 34 4e 0e 3d 05 27 0a 3c fc 8a 65 3d f1 6e 8a 3d
       0.03474255 0.008432155 0.05604075 0.06759442
000150 52 67 2c bd a9 80 09 bd 03 eb ce 3d b9 dd ba bc
       -0.04209072 -0.033569966 0.10103419 -0.022810804
000160 d1 87 dc bc 8e 60 73 3c 3f c0 df bc 50 18 ac bc
       -0.026920231 0.014854563 -0.02731335 -0.021007687
000170 6d 45 b5 3c de e1 9c bd 90 f8 94 bd 83 f3 00 3e
       0.022127831 -0.07660268 -0.07273972 0.12592892
000180 76 be 58 3c fe 34 6e 3d 07 e6 58 bd 8a ce b7 3d
       0.013229003 0.058156006 -0.052953746 0.08974941
000190 53 9d 93 3d bc bc 83 bc 13 c0 e6 bc 87 7e 84 bd
       0.072077416 -0.016081207 -0.02816776 -0.06469446
0001a0 3f 5b 84 3d 72 9b 76 bd 7e da b9 3d 42 32 ba bc
       0.06462716 -0.060206838 0.09074877 -0.022729043
0001b0 e2 23 51 3d 98 8b 5a bd f4 73 a5 3d 93 94 d6 bd
       0.05105961 -0.053355783 0.08078757 -0.10477557
0001c0 05 af 2f 3d 0a 80 df 3b e4 3b 7c bb 3a 53 82 bd
       0.04289152 0.0068206834 -0.0038487846 -0.063635305
0001d0 04 3c 41 3d 5d a8 a2 3d 31 5b 8c bd 26 b0 67 3d
       0.047176376 0.07942269 -0.06853331 0.056564473
0001e0 b5 3b e9 3d df 96 7a 3d a5 10 ba bc 14 36 e8 3c
       0.11388341 0.061179038 -0.022713015 0.028346099
0001f0 99 31 79 3c 75 cb c7 3d bd 01 13 bd ed 3b 45 3c
       0.015209579 0.09755603 -0.03589033 0.012038213

weight f4 [256, 128]
000000 db 90 a1 bd b5 6d 7d bd 7f 1e 73 3d b5 e7 4e bd
       -0.07888957 -0.061872203 0.059355255 -0.05051394
000010 da 12 c3 3d 94 75 1b bc 6d d1 1e 3d 1c da ac bd
       0.0952508 -0.009488482 0.038773943 -0.084400386
000020 8d 67 f2 bc 0a 05 7f bd 67 51 63 bd c4 57 b5 3d
       -0.029590392 -0.062260665 -0.055497553 0.088546306
000030 41 63 17 bd e7 5f ce 3d f9 84 31 bd cc e2 25 bd
       -0.03695989 0.10076886 -0.043339703 -0.040499493
000040 b9 77 98 3c 03 80 a3 bd 0f e3 6e bd e7 c1 82 3d
       0.018611776 -0.07983401 -0.05832201 0.0638464
000050 30 22 29 bd 3b 73 79 3d 11 bb 0a 3d 85 1c fb 3c
       -0.04129237 0.060900908 0.033869807 0.030653248
000060 54 61 dd 3c c0 3b 94 bd 54 32 74 bd 7d cc bd bc
       0.027023949 -0.07237959 -0.05961831 -0.023168797
000070 1e cf 0c bd 70 66 36 bd b4 b8 02 bd dd 32 27 bd
       -0.03437721 -0.044531286 -0.031914428 -0.04081999
000080 51 a5 4d 3d 31 15 26 bd dd 60 6a bd 1e 3d 30 bc
       0.050206486 -0.040547553 -0.057221282 -0.010756759
000090 03 9a 7e 3c 17 a7 ec 3c 3c ed db 3d f8 47 f2 bc
       0.015539649 0.028888268 0.10738608 -0.029575333
0000a0 09 d1 93 3d c0 e3 98 bd 1e f9 ac 3d 1e dc 20 3c
       0.07217605 -0.07465315 0.08445953 0.009818105
0000b0 b6 9a 95 bd c2 c9 74 3d 4b 29 a6 bd e8 3f f6 3c
       -0.073048994 0.059762724 -0.08113345 0.03005977
0000c0 b4 34 4f bc f2 82 32 3d b1 fb a3 bd 65 bb c4 bc
       -0.012646843 0.04358191 -0.08006991 -0.024015138
0000d0 26 20 ad 3c 59 f2 2b 3d 85 0e a1 3a 3a eb 31 bd
       0.021133494 0.041979168 0.0012287652 -0.04343722
0000e0 6f ce fb 3c 1d d9 4e 3d 94 77 99 3c b1 80 ff 3b
       0.030738084 0.050500024 0.018733777 0.0077973236
0000f0 2a 2b 34 3d 32 45 78 bd 1d 73 80 bd fa de 2a bb
       0.043986477 -0.060612865 -0.06271956 -0.0026072846
000100 ef 74 a0 3d a2 b6 34 3d 42 71 24 bb 5a 3d c3 3c
       0.07834803 0.044119485 -0.002509192 0.023832966
000110 d8 6c 92 bd b5 19 44 3c 10 3b 20 bd 35 f4 fa bc
       -0.071496665 0.01196902 -0.039118826 -0.030634025
000120 be 05 96 3d 79 65 04 bd f3 25 3b 3d a4 11 35 3d
       0.07325314 -0.032323334 0.045690488 0.044206277
000130 91 0a 4d 3b bd 27 1e bd cb e6 9b 3d 5c 9c 70 bd
       0.0031286816 -0.038612116 0.0761238 -0.058742866
000140 c7 a9 db bc 2a 10 ff bc 8f 2e ae 3c f8 8c 3e bd
       -0.026814355 -0.031135637 0.021262435 -0.046521157
000150 a3 79 58 bd 5f af a1 3d 51 72 42 bc 4c f0 ac 3d
       -0.052850377 0.078947775 -0.0118680755 0.084442705
000160 80 45 22 3b 5c 62 b3 3c 95 a3 c1 3d 4b 12 c5 bc
       0.0024760664 0.021897487 0.09455029 -0.024056574
000170 7e b3 22 bd 13 44 32 bc c2 d1 53 bc e7 2d f6 bc
       -0.03972196 -0.010880488 -0.012928428 -0.030051185
000180 0f ec 1c bd d0 cc 19 3c a7 a6 0a bd 88 c0 9b 3c
       -0.03831106 0.00938721 -0.03385034 0.019012704
000190 d3 12 3e 3d e1 a2 48 3d c6 9c d2 3c 8c 26 14 bd
       0.04640467 0.04898346 0.025709521 -0.036169574
0001a0 0c 3a 99 bd 28 9c 28 bd 85 6d a2 bd a5 91 52 3c
       -0.07481775 -0.041164547 -0.079310454 0.012852107
0001b0 b3 f6 71 3d bc 13 08 bd 2b a5 15 bd 0a 6a 0a 3d
       0.05907316 -0.033221945 -0.03653447 0.033792533
0001c0 85 b7 0f bd f3 b4 ba 3d 64 65 d5 bc d2 29 31 3d
       -0.035087127 0.091165446 -0.026049323 0.043252774
0001d0 02 16 23 bc b7 ba a6 3d ca 32 a4 bd 18 94 87 3d
       -0.009953978 0.08141082 -0.080175 0.066200435
0001e0 80 d2 50 3d 91 ef 9b 3d cb 97 13 3d 74 f9 c7 3c
       0.050982 0.07614053 0.036033433 0.02441094
0001f0 55 a7 4d bd be c3 6b bc d2 16 bd 3b 16 3f fd bc
       -0.05020841 -0.01438993 0.0057705427 -0.03091387
000200 84 1f 35 3d 57 ac 22 bd da fb a6 3d f0 fc 7c 3d
       0.04421951 -0.039715137 0.081535056 0.061764657
000210 c6 91 d3 bc 02 69 bd 3c 32 46 f3 bc 1a 7b b0 bc
       -0.025826346 0.02312136 -0.029696558 -0.021543074
000220 0c b0 b4 bc ce d9 b8 3d 91 06 d4 3b 58 cb 46 3d
       -0.022056602 0.09025918 0.0064705093 0.048533767
000230 cd 8c 19 3c 0f a3 af bd 84 02 95 bd 9d 47 88 bd
       0.009371948 -0.08576023 -0.072758704 -0.06654284
000240 15 a8 05 3d ad 83 a4 3d 28 78 ce bc a7 9f 5f bd
       0.032631 0.08032928 -0.02520378 -0.054595616
000250 3f c1 b1 3d a9 b8 9c bd 62 5b 82 3d 44 65 22 3d
       0.08679437 -0.07652409 0.06365086 0.039647356
000260 3a b5 9c bc f2 27 50 3d 24 b1 5e bd ea 1c 6e 3c
       -0.019129384 0.050819345 -0.054368153 0.014533261
000270 57 ea 3d bd af 92 ef 3c 7a 7f 46 3d cd ad 74 3d
       -0.046366062 0.029244749 0.048461415 0.05973606
000280 d5 3b aa 3b ab bb d3 bb 6c 3c f8 3b 06 0e 2a bd
       0.005195121 -0.0064615807 0.007575562 -0.04151728
000290 bf f0 3f bd c3 1c 0a bd 01 ab 12 3d 44 53 95 bd
       -0.046860453 -0.033718836 0.035807613 -0.07291272
0002a0 bd 5c 87 bb 6b 01 86 bd 88 31 fb bc 11 ed 2f 3d
       -0.0041309283 -0.06543239 -0.030663267 0.042950694
0002b0 4f f0 a9 bd a9 3e 2e bc b0 ee 87 3d 56 06 a3 bc
       -0.08297788 -0.0106350565 0.06637323 -0.019900482
0002c0 dc a3 1d 3d 07 a7 c0 3d 67 84 43 bd fb eb ec 3c
       0.038486347 0.09406858 -0.04773369 0.028921118
0002d0 5c 7b aa ba 49 dc 98 3d 8c 02 f8 bc 16 e0 bf 3d
       -0.0013006735 0.07463891 -0.030274652 0.09368913
0002e0 4d 6d a2 3c 86 6c 76 bd 43 a3 02 bd dd 42 a5 bc
       0.01982751 -0.06016209 -0.03189398 -0.020173484
0002f0 63 b6 71 3d 27 eb 97 ba d8 1d 85 3d 69 d9 aa bc
       0.05901183 -0.0011590467 0.06499833 -0.020855622
000300 1a f1 92 3b 67 70 88 bd 77 ad f5 3c 80 2b ff 3c
       0.004484308 -0.06662064 0.029989941 0.031148672
000310 55 52 b4 3c 22 96 72 bd 84 54 88 3d 9e 6a 11 bc
       0.022011915 -0.05922521 0.06656745 -0.008875517
000320 ec ed 04 bd b8 8c 84 3d 35 b0 7a bb 77 dc 16 bd
       -0.032453462 0.064721525 -0.0038252 -0.036831345
000330 82 64 7b bd 49 d4 b3 3c 5a e3 ad 3d 9c 14 ee 3c
       -0.06137515 0.021951811 0.084906295 0.029062562
000340 0a b9 e0 bc 67 04 34 3d 39 9e 35 3d 49 c2 e5 bb
       -0.027431984 0.04394951 0.044340346 -0.007011686
000350 c7 60 78 3c dc 4e 32 bc 59 7a 9e bd 1b 78 69 bd
       0.015159792 -0.010883059 -0.0773818 -0.056999307
000360 62 1b 24 3d 1b 61 c2 bc f6 0e 9d bd 63 ad 85 3d
       0.040065177 -0.023727944 -0.07668869 0.065272115
000370 7a 7e 86 3d 1b e7 64 3d 46 ad 4c bd c5 54 e2 3c
       0.06567092 0.05588446 -0.049969934 0.027628312
000380 45 b0 5e 3d c5 a0 8d 3c 47 2c 69 bc e6 c9 5c 3c
       0.054367322 0.017288575 -0.014231748 0.013475871
000390 80 57 15 bd 6c af 86 bc 3b 67 6e 3d c7 b0 1e 3d
       -0.0364604 -0.01644107 0.058203917 0.038742807
0003a0 94 d1 38 bd 24 b6 74 3d 68 af 68 bc 3b 09 5b bc
       -0.045121744 0.059744015 -0.014201976 -0.0133689
0003b0 44 48 89 bd 05 08 92 bd 46 75 8b 3d bb 2d d7 3c
       -0.06703237 -0.07130436 0.068094775 0.026266923
0003c0 93 06 3f bd 16 68 36 3d 36 11 c1 3d ce cd a0 3d
       -0.04663713 0.044532858 0.09427111 0.07851754
0003d0 98 ca 02 bd 2b 12 9b bd a1 db 85 3c 28 f9 50 3d
       -0.03193149 -0.07571825 0.016340079 0.051018864
0003e0 d7 60 d0 bc 10 ca 3f 3d e6 c4 e9 3c 7e 01 5a bc
       -0.025436802 0.04682356 0.028536271 -0.01330602
0003f0 35 a2 70 3d 90 aa 87 bd 40 c7 81 3d d7 35 49 bc
       0.058748443 -0.06624329 0.06336832 -0.012280903

bias f4 [256]
000000 bf 15 14 bd 2f 22 b1 3c a3 d6 95 3c 36 37 94 3d
       -0.03615355 0.021622745 0.018290823 0.07237093
000010 d7 bf f7 bc dc 2f 8e 3d 87 cd 3a 3d bf 61 b5 3d
       -0.030242844 0.06942722 0.045606162 0.08856534
000020 ac b0 bb 3d 3b 6b 8c 3c 69 95 6e 3d 05 60 d4 3d
       0.09164557 0.017140975 0.058247957 0.10369877
000030 1a ea ad bc 98 48 c5 3c 47 66 d7 3d 9b 62 1f bd
       -0.021229792 0.024082467 0.10517555 -0.038912397
000040 8f dc 38 bd 6e 1d dd 3c 5a c5 6f bd 0f dd ba 3d
       -0.045132216 0.026991572 -0.05853782 0.09124195
000050 cd a6 aa 3d cb 2e 8c bd e0 6b a2 bc 81 3a 2e 3d
       0.08332596 -0.068448626 -0.01982683 0.042536262
000060 b9 a3 de bb ee 84 8d 3c 03 07 5d 3c 09 99 9b bd
       -0.0067944196 0.0172753 0.013490441 -0.075975485
000070 4c 99 c4 3c 95 19 0f 3d d6 85 28 bc 02 4a fc bc
       0.023998879 0.034936506 -0.010285815 -0.030797008
000080 b5 fe 32 bc 08 8c de bc 39 e3 31 3d da 94 f9 3c
       -0.010924985 -0.027166381 0.043429587 0.030466486
000090 9a f4 7d bc 5d 16 0b bd 24 fd 97 bc 75 8e c1 3d
       -0.015500212 -0.033956874 -0.018553324 0.09451
0000a0 55 67 05 3d c5 1d b8 3d b0 65 13 3d 66 bd 97 bd
       0.03256925 0.08990053 0.03598565 -0.07409172
0000b0 5c 53 d7 3d b4 61 11 3d f2 c5 bd 3d af 40 d4 bc
       0.105139464 0.035493568 0.09266271 -0.02590975
0000c0 0d 92 85 bd bb c6 6b 3d 60 19 21 3c ab bc 11 3d
       -0.065219976 0.05756257 0.00983271 0.03558032
0000d0 20 c7 c1 3d 6d 60 b8 3c 3b e5 6d bd f5 88 b2 3d
       0.09461808 0.022506917 -0.05807994 0.08717529
0000e0 fb 40 92 bd 53 95 a2 bd 14 8e a4 bc 04 35 df 3d
       -0.071413 -0.079386376 -0.02008728 0.10898784
0000f0 85 0f a5 3d f0 60 c4 bb 12 24 79 3d 1a 0d 8b 3c
       0.08059601 -0.005993001 0.060825415 0.01697402
000100 34 cd b0 3c 27 85 2d 3d 6a 94 99 bc 98 63 3f bd
       0.021582223 0.042363312 -0.018747527 -0.04672584
000110 a8 38 ce bc f4 ce 8a bd b9 7e 0e bc 55 be 71 bd
       -0.0251735 -0.067777544 -0.008697205 -0.059019405
000120 83 8d 8b 3d 87 11 f0 3c 8a e3 a4 3d a9 a0 4c bd
       0.068141006 0.029305233 0.08051212 -0.049957905
000130 ae 7a 6e 3c 7a 1d fc bc b2 3f c5 3d 88 eb 5e 3d
       0.014555616 -0.030775774 0.096312895 0.05442384
000140 30 2d 49 bd f0 12 ec bc c7 dd ad bc 6b 42 96 3d
       -0.04911536 -0.028817624 -0.021223916 0.07336887
000150 ce 95 41 bd 9a ae 01 3d ca 56 a8 3b 04 97 a5 3d
       -0.047262006 0.031660654 0.005137299 0.080854446
000160 83 c3 01 bb 5c a5 88 3d eb 40 0b 3c 33 99 75 bd
       -0.0019800372 0.06672165 0.008499364 -0.059960555
000170 15 ef 03 3d ac cb 34 bd b1 77 74 3d e9 12 27 3d
       0.03221043 -0.04413955 0.05968446 0.04078952
000180 14 49 4a bd 19 29 9b 3c 64 0a 89 3d bc ec c7 3c
       -0.0493861 0.018940495 0.06691435 0.024404876
000190 9a 8f c3 3d 37 85 47 bc d4 c3 a8 bd 64 9b 07 3d
       0.09548874 -0.012177757 -0.08240476 0.033107176
0001a0 e6 07 0a bc d7 15 8b 3d b4 e6 ca bc de 7c f6 3d
       -0.008424735 0.06791275 -0.024768211 0.12035535
0001b0 0b c5 36 3d 5f a6 90 bc 99 78 15 bd d9 89 63 3d
       0.04462151 -0.017657457 -0.036491964 0.055551384
0001c0 68 24 d3 3a 0f 2a 9b 3d cc 17 0a 3c 9f 36 58 3d
       0.0016108872 0.075763814 0.008428525 0.052786466
0001d0 ae 76 a4 3d c5 0a d5 bc 24 ec a2 3c 26 e9 d3 3d
       0.08030449 -0.026006112 0.019887991 0.10347204
0001e0 62 1b 99 3d c5 6b e1 3d 83 e8 bb 3c a2 91 ca 3d
       0.07475926 0.110068835 0.022938019 0.098910585
0001f0 bc 5d 42 bd e2 d8 29 3d 0d a3 b3 bd b6 36 d2 3d
       -0.047452673 0.0414666 -0.08771334 0.102643415
000200 10 12 b5 3d 4a 35 48 bd 84 52 eb bc c1 62 e0 3d
       0.08841336 -0.048878945 -0.02872587 0.10956336
000210 01 a3 be 3c 76 89 5f bc fa 3a 7c 3a 69 2d 33 3d
       0.023271086 -0.013643613 0.00096218253 0.04374448
000220 6c 50 53 bd 94 87 53 bd 9b ad 96 bc a4 e7 1f bd
       -0.05159037 -0.05164297 -0.018393328 -0.03903927
000230 de 06 30 3d 12 a5 ae bc a0 db 22 bb 76 e1 83 3d
       0.0429753 -0.021318946 -0.0024850145 0.06439488
000240 73 ce 9e 3d 1e 27 5b bd f3 28 95 bd 30 93 2d 3d
       0.07754221 -0.053504102 -0.07283201 0.042376697
000250 ef 31 0d 3d 3a 29 24 3d cf 70 12 3d 2c 5f 10 bd
       0.03447145 0.04007838 0.035752114 -0.035247013
000260 ca a4 58 bd d8 5f 75 3d 32 94 33 bc 89 f1 bd 3d
       -0.05289153 0.059905857 -0.0109606255 0.09274585
000270 4b 6a b3 3d 1b c8 d3 bb ba 2d 91 3d 76 64 98 bd
       0.08760508 -0.0064630634 0.070888 -0.074410364
000280 56 16 00 bd 5c bf 5f bd af b4 45 3d 90 8f 2f bd
       -0.0312713 -0.054625854 0.048268016 -0.04286152
000290 a9 7f 6c 3d b9 f4 85 3d 4d 27 cc 3a 2f c8 c7 3b
       0.057738934 0.06540818 0.0015575677 0.006096862
0002a0 99 d7 b1 bc 36 4e 25 3d 15 1e c0 bc 14 f7 ad 3d
       -0.02170925 0.04035779 -0.023451844 0.08494392
0002b0 66 b7 af bd 53 8a 06 bc 5c a3 04 bd ca 22 43 bd
       -0.08579902 -0.00821169 -0.032382354 -0.0476406
0002c0 fe 29 0e 3c eb 92 25 3c 6b 6d ac bb b1 71 a3 3c
       0.008677004 0.010105829 -0.005262067 0.019951673
0002d0 82 b8 89 3d 61 3d 84 3d 9f 1b b3 bc f4 72 29 3d
       0.06724645 0.064570196 -0.021863757 0.041369393
0002e0 f7 04 b7 3c e2 52 88 3d 3f 2c fe 3c 86 e7 3d 3d
       0.022341235 0.06656434 0.031026958 0.046363376
0002f0 48 60 ae 3d 95 cf 93 bb 3a 95 8b 3d 11 52 66 bd
       0.08514458 -0.0045108297 0.06815572 -0.05623061
000300 31 d7 81 3c 16 ca 2e bd 29 d2 40 3d f0 b2 97 3c
       0.015849682 -0.042673193 0.047075424 0.018517941
000310 a4 1d 65 3d 43 e2 4d 3d 55 f2 62 bd 07 88 a3 bd
       0.05593647 0.050264608 -0.055406887 -0.079849295
000320 6f 9c d4 bc 7d d4 74 3d 8d 0f 9d 3d 6f 3b f6 bc
       -0.0259535 0.059772957 0.07668982 -0.030057637
000330 55 b5 12 3d 19 7f 45 3d 21 c6 a8 bc 10 ff 6a bd
       0.035817463 0.048216913 -0.020602288 -0.057372153
000340 03 e3 33 3c fd 82 0d 3b ef 31 1d 3c 2b bf 16 3d
       0.010979417 0.0021592968 0.009594425 0.036803406
000350 10 38 d5 3d 3c 4b 0d 3c 08 c0 23 bd 57 fc 41 3d
       0.10411084 0.008623894 -0.039978057 0.04735979
000360 e1 6c 19 3d 0c 0e cd 3d 8c e1 24 3d 57 07 04 bd
       0.03745735 0.10012445 0.04025416 -0.032233562
000370 25 d0 4e bd 9a b6 49 bd 3c 08 3d 3d b4 c1 c5 3b
       -0.05049147 -0.049246408 0.04615043 0.006035054
000380 d8 2c 8d 3d 0f 18 cc bc 37 d1 10 3d 63 a3 cd 3c
       0.06893319 -0.024913816 0.035355773 0.025102323
000390 5d 77 a6 bc e8 37 0a 3d 5b bc 25 3d 36 ab 0b bd
       -0.020320589 0.033744723 0.040462833 -0.034098826
0003a0 7c fa f7 3b 75 28 5e 3d e6 c6 2d bd d9 a8 b4 3d
       0.007567702 0.0542378 -0.042426012 0.08821268
0003b0 ba 00 a3 3d e8 8b 29 3d b3 e0 80 3d 13 0d b9 3c
       0.07959123 0.04139319 0.06292858 0.022589242
0003c0 37 65 1a 3d 4f 36 26 3b 39 42 83 bd d8 21 93 bd
       0.037694182 0.002536196 -0.06409115 -0.071841896
0003d0 78 91 7c bd 7b dc 80 bd bc 02 94 3c 02 c4 ec 3d
       -0.061662167 -0.06292053 0.01806771 0.11560823
0003e0 9a ec a1 3d eb 9e 7f bc e0 ed e3 3d 7c 8e 6d 3d
       0.07906456 -0.015601854 0.111293554 0.05799721
0003f0 75 74 34 bd 97 3a ac 3d 50 62 46 bd dd 7d 68 bd
       -0.044056375 0.084096126 -0.0484336 -0.056760658

weight f4 [512, 256]
000000 6e 3d 6c 3c d9 78 5c bd 23 a5 3a bb 42 31 01 bd
       0.014418943 -0.053826187 -0.0028479777 -0.031541117
000010 69 9f 20 bc 02 39 2b bc c8 cc 4c 3d 79 2e 17 3d
       -0.009803631 -0.010450603 0.049999982 0.036909554
000020 19 93 4b bd e0 61 6f 3b c3 f7 dc bc 8f a7 ac 3c
       -0.04970083 0.0036526844 -0.02697361 0.021075992
000030 81 c5 95 bc 91 1d 1f 3d 18 b2 08 bd 0b 52 3a 3d
       -0.018282654 0.038846556 -0.03337297 0.0454884
000040 f1 dc 6e bd 9b a0 25 bd ff 5a 7b 3d cf a5 1b bd
       -0.058316175 -0.04043637 0.061366078 -0.037999924
000050 09 be e2 3c 88 0e 57 3c 4c ed 62 bc f0 dc 41 bd
       0.027678506 0.013126023 -0.013850521 -0.047329843
000060 d5 71 64 bd a8 f4 40 3d 49 13 33 bd da c2 57 3d
       -0.05577262 0.047108322 -0.043719564 0.05267606
000070 ea a7 d4 3c 1c 41 db bc 23 89 30 3d 13 e0 d7 bc
       0.025958974 -0.026764445 0.043099534 -0.026351964
000080 dc 8d 05 3d 43 a2 2e bd 38 43 33 bd f8 82 9e bc
       0.03260599 -0.042635214 -0.043765277 -0.01934956
000090 8d 38 4d bc 65 b4 3b bd 9b 17 14 bd f4 1d 57 bd
       -0.01252569 -0.045826335 -0.036155324 -0.0525188
0000a0 c3 fb 9e 3c 3b e0 91 3c 92 78 72 3d 15 79 72 3d
       0.019407159 0.017807117 0.059197016 0.059197504
0000b0 6c 6a 0e 3d f3 99 f6 ba e1 c9 5e 3d db 0c ac bc
       0.03476946 -0.0018814191 0.054391745 -0.021002224
0000c0 26 f6 32 3d c6 b6 3f bd 9c 7d 0f bd 4a d8 80 3a
       0.043691777 -0.046805166 -0.0350319 0.0009830084
0000d0 2e 0b c4 3b 74 17 10 3d ee b4 6a bd c1 8b 07 3c
       0.005982778 0.035178617 -0.057301454 0.008273066
0000e0 79 51 35 3d cb 35 62 3d 7e fd 81 bc 1c ad e6 3b
       0.04426715 0.055227082 -0.015867945 0.007039679
0000f0 29 6a e0 bc e8 32 a9 3c 81 6f 1f bd 12 68 0a 3d
       -0.027394371 0.020654157 -0.038924698 0.033790655
000100 c0 cd 2d bb 40 94 0a bd fe ad ec bc f6 19 84 bc
       -0.0026520342 -0.03383279 -0.02889156 -0.01612566
000110 d9 9d c1 bc 43 3b f0 3c d4 ae 12 bc d1 72 d7 3c
       -0.023634838 0.029325133 -0.008952815 0.026299866
000120 ac f6 e8 bb 53 aa c6 3c 49 65 01 3d 66 b7 42 bd
       -0.0071094837 0.024251139 0.031590734 -0.047538184
000130 85 8f b4 bc 09 f2 26 bc e0 1d 20 bd f0 5e 17 3d
       -0.022041092 -0.010189542 -0.03909099 0.036955774
000140 c1 02 75 3d cc 40 87 bc dd 3e 68 3c 7c ed 48 bd
       0.05981708 -0.01651039 0.014175144 -0.049054608
000150 a8 33 0c bd 56 c6 1b bc db 5e fe 3c 35 27 3f bd
       -0.03422895 -0.009507736 0.03105109 -0.04666825
000160 9f 39 52 bd a2 a9 6a 3c 7f 54 ac 3b e4 ac 4a 3d
       -0.051324483 0.01432267 0.005259096 0.049481288
000170 f2 de 6a 3c e2 e6 2b bb e7 e5 91 3a 40 74 2c bd
       0.014335381 -0.0026230146 0.0011131138 -0.042103052
000180 8f cf 6e bd 47 86 a9 bc 99 9b 11 3d 7b 0a 50 3d
       -0.058303412 -0.020693911 0.03554878 0.050791245
000190 fc 10 d5 bc 8e c9 0c bd 92 8b 16 3d 86 d3 65 3d
       -0.026009075 -0.034371905 0.0367542 0.056109928
0001a0 8a 6b 5b bb f8 49 4c 3d ab bd 59 bd a5 0c 3e bb
       -0.0033480846 0.04987523 -0.053159397 -0.0028999236
0001b0 f4 21 ef 3c e1 48 13 3d 65 00 37 bd f0 a4 be bb
       0.029190995 0.035958175 -0.04467811 -0.005818002
0001c0 dd 67 4d 3c 73 a4 a7 bc 59 8b 6b 3c 4c 85 ce b9
       0.01253697 -0.020464158 0.014376485 -0.00039390696
0001d0 bc b4 2b bd 66 f0 45 3d 3e fb 86 3c 05 ae 2b 3d
       -0.04192041 0.048324965 0.016477223 0.041914005
0001e0 0b ba 1d 3c 48 17 c9 3c 6a a8 cc bc d7 22 0c bd
       0.009626876 0.024547234 -0.02498265 -0.034212913
0001f0 99 3a 7f bd 72 a2 79 bd 02 55 49 3c 7c ab 61 bd
       -0.062311742 -0.060945936 0.012288334 -0.05509518
000200 18 9d eb bc 14 17 1c 3c 9d d6 44 bd e8 da 58 bd
       -0.028761432 0.009526987 -0.048056234 -0.05294314
000210 fb 6a 3c bb f5 59 96 3c 5d d8 5c bd 34 db 81 3b
       -0.0028750289 0.018353442 -0.053917278 0.0039628986
000220 2c 1d 8e bb 17 22 0c bc 87 c8 d9 3c 0e b1 43 3d
       -0.0043369737 -0.0085530495 0.026584877 0.047776274
000230 81 ef 04 3c 41 09 5e 3d c4 78 87 3b 97 6a 7d bd
       0.008113743 0.054208044 0.0041342694 -0.06186923
000240 c6 b2 5c 3c dc 53 0c 3d 08 3b 00 3d 94 f6 e6 bb
       0.013470357 0.034259662 0.031306297 -0.0070484374
000250 49 d9 c8 ba 01 3c 77 bd 63 42 31 bd 46 2a 65 bc
       -0.0015323545 -0.06035996 -0.043276202 -0.01398713
000260 ff d3 95 3c 21 df 36 bd 58 94 41 bd 15 0c 83 3c
       0.018289564 -0.044646386 -0.047260612 0.015996972
000270 a2 79 85 3b 7a 44 ab bc fd 9f 36 bc eb c6 35 3d
       0.0040733377 -0.020906676 -0.011146543 0.044379156
000280 78 e1 5c bc 84 ae 03 bd 4d ff 6c bd 44 52 aa bc
       -0.01348149 -0.032148853 -0.05786066 -0.02079118
000290 cf b0 c6 3c a2 82 00 bc 21 2e 42 3d 92 ee 45 3c
       0.02425423 -0.007843645 0.047407273 0.012080805
0002a0 9b 4d 12 bd 90 d4 d9 bc 4d b9 e8 3b ed f7 06 bd
       -0.03571854 -0.026590616 0.0071021677 -0.032951284
0002b0 a0 42 46 3c 89 28 5c bc 60 75 4f 3d ca 8b b7 bc
       0.012100846 -0.013437399 0.050649047 -0.022405524
0002c0 1c ac 7b 3d 76 f3 b6 bc 91 e4 d0 3c 9f 21 08 bd
       0.061443433 -0.022332888 0.025499614 -0.03323519
0002d0 8a 16 28 3d bf 69 9e bc f4 7c 15 3d 7b a2 9c 3b
       0.04103712 -0.019337533 0.036496118 0.0047801114
0002e0 69 0e 2f bc e7 12 14 bd 00 7c 20 bd 0f f4 00 bd
       -0.010684588 -0.03615084 -0.039180756 -0.031482752
0002f0 c3 2b 11 bd 9c 52 1d bc b6 72 5a bd 12 1a f4 bc
       -0.035442125 -0.009602215 -0.053332053 -0.029797588
000300 62 cd 3e bd cb cb 5b 3d 82 81 6c bd c6 aa af 3c
       -0.046582587 0.05366115 -0.057740696 0.021443736
000310 c8 dc 5d 3d 6e a0 19 bb 7a 7e f6 bc 97 f0 32 3d
       0.05416563 -0.002344157 -0.030089606 0.043686476
000320 2e 31 47 bd a9 05 12 bd d1 f3 d1 bc ed b1 2f 3d
       -0.048630886 -0.03564993 -0.025628956 0.042894293
000330 bf 44 66 bd e5 8f f0 3c 19 4c 2f 3d a1 89 1b 3c
       -0.056217905 0.02936549 0.04279718 0.0094932625
000340 ad f2 ab bb 24 98 cb bb 3c 9b d6 3c 91 05 b8 3c
       -0.005247435 -0.006213205 0.026197068 0.022463592
000350 b3 3a 0e 3d 6b 02 0a 3d 36 d9 25 3c cf bb 7c bd
       0.03472395 0.033693712 0.010122588 -0.061702546
000360 88 bd 41 3d 91 49 80 3b b4 09 ee bc 70 9e 59 ba
       0.04729989 0.00391502 -0.029057361 -0.0008301502
000370 65 42 23 3d 1f e4 76 3d d7 e5 2f bd d9 9a fe bc
       0.03985824 0.060276147 -0.0429438 -0.031079696
000380 37 1e 74 3c 38 f6 cd 3c 67 53 30 3d e5 e1 3c bd
       0.014899782 0.02514182 0.04304829 -0.046113867
000390 91 c3 3b bd 1c 06 83 3c f6 ed 57 3c 75 15 d6 3c
       -0.045840804 0.015994124 0.013179293 0.026133278
0003a0 61 92 6f bd 4a 7f 26 bd 4b 7e 57 3d a7 16 41 3c
       -0.058489207 -0.040648736 0.052610677 0.011785186
0003b0 5f b7 39 bd c8 49 46 bd a1 d6 7c 3d f0 fb 51 3d
       -0.045340892 -0.048410207 0.061728124 0.051265657
0003c0 e5 dd 9b bc 90 1b 59 bd 93 7a 4a 3d 8f 71 b3 3c
       -0.019026706 -0.0530048 0.049433302 0.021904735
0003d0 37 7e ec bc 5e 70 57 bc d4 52 e0 bc 37 b2 22 3d
       -0.028868778 -0.013149349 -0.027383246 0.03972074
0003e0 3e 14 64 bd 31 ca 62 bd 2d e9 61 bd 3d 18 5e 39
       -0.055683367 -0.055368606 -0.055154014 0.000211806
0003f0 c6 e3 e5 3c 7c e3 1e bc 27 ab 3c bd ed bb 22 3d
       0.028062712 -0.009697791 -0.04606166 0.03973

bias f4 [512]
000000 63 7c 99 3c 19 18 d7 bc 90 a2 95 3d 12 87 b4 3b
       0.01873607 -0.026256608 0.07306397 0.0055092657
000010 58 7b 57 3d 09 f9 c3 bb 45 7c 1b 3d 8e c4 65 bd
       0.052607864 -0.005980615 0.03796031 -0.056095652
000020 3f ae 04 bd 46 4d 0b 3d b5 86 4c bd 0f e0 40 3d
       -0.032392737 0.03400924 -0.049933154 0.04708868
000030 c0 db f7 3b 00 64 c0 3c 5e 1b 5d 3a 3a 06 2f bd
       0.007564038 0.023485184 0.0008434559 -0.042730547
000040 aa a0 18 bd 99 6f 2e bd 8a dd 3d 3d 07 7c 2b bb
       -0.037262596 -0.042586897 0.046353854 -0.0026166455
000050 44 2b 3c 3d 9a 1c a3 3d 3c df 06 bc a2 3f ad 3c
       0.0459397 0.0796444 -0.008231934 0.021148507
000060 93 48 b9 3a 68 c2 8b bc 0c 2e 1d 3d 58 8e 8d bc
       0.0014136009 -0.017060474 0.03837399 -0.017279789
000070 ea 67 da 3c 32 0b 4d 3d ed 70 df 3c 7f 92 3e bb
       0.026660878 0.050059505 0.027275527 -0.0029079018
000080 4e 82 26 3d 97 1f a7 3d 96 17 83 3b 81 b4 31 bd
       0.040651612 0.08160322 0.0040006144 -0.043385033
000090 e1 3c 39 bd b0 2e 0e bd 2f a7 77 3c bd f8 11 bd
       -0.045224074 -0.034712493 0.015115543 -0.035637606
0000a0 67 b9 87 bc 49 da 3b bd 16 6a 1b 3b c3 1f 5c 3d
       -0.016567899 -0.04586247 0.0023714355 0.053741228
0000b0 6b 96 89 3c 24 8d 80 bd 38 99 c1 bc f6 3c d5 bc
       0.016795358 -0.062769204 -0.02363263 -0.026030045
0000c0 1a 4a e3 bc 9e 3e f5 bb 9a bb ea 3c 91 f9 95 bc
       -0.027745295 -0.007484271 0.028653909 -0.01830748
0000d0 7c c3 26 3c 2d c1 3c 3d 6d fd 45 bd aa 72 a1 bc
       0.010178443 0.046082664 -0.04833739 -0.019707996
0000e0 aa d2 1e 3d da f3 f4 3c 12 0e 2c bd 3f 9a 1c bd
       0.038775124 0.029901434 -0.042005606 -0.038233038
0000f0 bc 5f 58 bc c1 24 96 3d 29 ac 90 3d b9 d7 06 3d
       -0.013206419 0.07331229 0.07064087 0.032920573
000100 29 7b 18 3d c2 24 07 bd f9 63 2c 3d 21 52 8e 3c
       0.03722683 -0.03299404 0.04208753 0.017373146
000110 0a ae 01 3d 16 10 1e bd 25 94 83 3d 67 55 32 bb
       0.031660117 -0.03858956 0.06424741 -0.0027211548
000120 79 56 d0 3c a3 3a 3d bd ce e1 80 3c 8f 90 4f bd
       0.025431858 -0.0461985 0.015732672 -0.05067497
000130 ae a2 92 bc cf 5d e6 bc db f8 44 3c d6 c7 cd bc
       -0.017899837 -0.028120903 0.012022222 -0.025119703
000140 4e df 1f bd ac 49 13 bd 50 5f bb 3c 5d 25 14 bb
       -0.03903132 -0.03595893 0.022872597 -0.0022605278
000150 37 0b 8c bc 74 74 18 bd d8 cd 83 bd d5 21 f3 3c
       -0.017095191 -0.037220433 -0.06435746 0.029679218
000160 8d 21 82 bc 39 a6 f4 bc b7 94 5d 3b 0b 3c 31 bc
       -0.015885139 -0.029864417 0.0033810565 -0.010817538
000170 94 e2 73 bc 39 a1 95 bb fa 73 54 bd 13 23 25 bd
       -0.014885563 -0.0045663384 -0.051868416 -0.040316653
000180 f1 a1 82 bd fd 8b 02 bd 8e d5 0d bd 71 69 0b bb
       -0.06378544 -0.031871784 -0.03462749 -0.0021272565
000190 8c aa 48 3d 0c d9 bd 3d ed 5c 3c bd 89 e7 8d 3d
       0.04899077 0.09269914 -0.04598706 0.069289275
0001a0 ff f0 d1 bc 77 e9 e2 bc ea ae dc 3c 36 4e 2a bd
       -0.025627611 -0.027699215 0.026938874 -0.041578494
0001b0 7a ef 13 bd 2e 96 29 bd 81 75 4b 3d 8e 16 a4 3d
       -0.036117055 -0.041402988 0.049672607 0.080121145
0001c0 9e 79 84 bd 48 c7 39 bc 3a cc 17 3d 4b 0d 55 3c
       -0.06468509 -0.011339016 0.03706 0.013003658
0001d0 c2 72 42 bd f4 7a bf 3c b6 0b 2c 3d 3a 0f 2c bd
       -0.047472723 0.023374058 0.042003356 -0.04200671
0001e0 88 b5 65 3d ef e5 0e 3d 10 f5 97 3d 29 a4 c6 3c
       0.056081325 0.03488725 0.07419789 0.0242482
0001f0 48 b6 09 bd cf fe 41 3d 7f 31 90 bc 5f 41 6c 3c
       -0.033621103 0.047362145 -0.017601727 0.014419883
000200 f9 3a fa bc c7 b9 1b 3d 79 0b ff bc ca d8 98 3c
       -0.030545698 0.038018968 -0.0311334 0.01865806
000210 1a b9 2b bd 73 26 ba bc 1c 07 b9 3d 10 0b 83 3c
       -0.041924573 -0.022723412 0.09034559 0.015996486
000220 d6 d3 87 3d db a8 be bc 1d 8b 8b 3d c7 c9 8e bc
       0.066322014 -0.023273876 0.06813643 -0.0174302
000230 3f f2 02 3c d8 be f3 3c 75 ea bf bc 5b 89 71 bd
       0.007992326 0.029754087 -0.023427228 -0.058968883
000240 99 2d 37 3d 0d ea 0c bd 0d 88 50 3d 25 de 10 3d
       0.04472122 -0.034402896 0.050910998 0.035368104
000250 bb 43 20 bd 3a 47 dd 3c e8 f7 95 3b 87 ee 57 3d
       -0.039127093 0.027011503 0.004576672 0.05271771
000260 11 c5 66 bd 9d e4 29 bd d8 15 39 3c c7 66 ba bc
       -0.05634028 -0.04147779 0.011296712 -0.022754086
000270 7e dd a7 3b 4c f6 53 3d 60 51 66 bd 5d 55 10 bc
       0.0051228395 0.05174856 -0.05622995 -0.008809415
000280 01 55 54 bd 29 cb 0e 3d 30 fc 28 bd 97 ca 24 3d
       -0.05183888 0.034861717 -0.04125613 0.040232267
000290 6f 51 d5 3c bd 6d c0 ba 28 71 0b bd 30 5d fd bc
       0.026039807 -0.0014681142 -0.03404346 -0.030928224
0002a0 a6 ae 17 bd ca 62 a5 3d 97 02 29 3c 3b ad 11 3c
       -0.037031792 0.08075483 0.010315559 0.008891399
0002b0 68 5b 38 3d 1d 69 d7 bb 78 33 eb 3c dc 5b 9a 3d
       0.045009047 -0.00657381 0.028711066 0.07537052
0002c0 89 90 99 3b 2e ab 61 bd 12 f5 50 bd a8 39 bd b9
       0.0046864194 -0.05509489 -0.051014967 -0.00036091846
0002d0 fb f8 a3 bc b9 8b ac 3d 61 ea 6a bc 3e 25 24 bb
       -0.020016184 0.084250875 -0.014338107 -0.0025046612
0002e0 c8 b8 0f 3d 0e bd 1a bd 7a 15 8b 3d 7e a5 01 bd
       0.03508833 -0.037777953 0.06791206 -0.031651966
0002f0 b0 2d 2e bd da d0 9f 3d ea fd 9c bc 39 fe 5e 3c
       -0.04252404 0.07803507 -0.019164044 0.013610416
000300 0f 56 9b 3d e4 bc 57 bd 8a 5a 8f 3d 36 f8 d8 3d
       0.07584774 -0.052670375 0.06999691 0.105942175
000310 a5 ca 58 3c 43 d5 71 3d eb 5e 4a bc 50 1f e1 bc
       0.013231908 0.059041273 -0.012351732 -0.027480751
000320 76 13 3c 3d f1 b5 1c 3d 2b 3c 66 3b cc 0d 4b bd
       0.045916997 0.03825945 0.0035131078 -0.049573705
000330 b8 95 b4 3c 3b 96 0a 3d 17 b4 27 bd ee 53 81 3d
       0.022044048 0.033834677 -0.04094323 0.063148364
000340 3a e5 1a bc f7 a1 07 bd b1 05 da 3c f4 cb 92 3b
       -0.009454066 -0.033113446 0.026614042 0.0044798795
000350 c2 73 65 bd 32 e0 fb bc 6f c6 e7 ba 3e da 10 bd
       -0.0560186 -0.030746553 -0.0017683039 -0.035364382
000360 99 87 39 3c 8a 64 ad 3d c1 d9 b6 3d 22 7f 85 3d
       0.011323833 0.08466442 0.08928252 0.06518389
000370 f9 1b 6d 3b 88 42 d4 3c f9 81 2f 3b b2 3e 8a 3c
       0.0036180003 0.02591063 0.002678035 0.016875599
000380 b1 72 34 3b ef 2a c3 bc ea 00 21 3d e6 3d 0f 3d
       0.0027534182 -0.023824183 0.039307512 0.03497114
000390 ef 0a 30 bb bb 38 a8 3d 08 94 aa 3d 38 32 b9 3c
       -0.0026861986 0.082139455 0.08329016 0.022606954
0003a0 16 56 21 3d f3 90 be bc 68 65 3c bc 95 4f bc bc
       0.03938874 -0.023262477 -0.0114987865 -0.022987166
0003b0 ae fc f2 3b 27 7a 1a 3d 97 e7 48 bd 99 b2 cf bc
       0.0074153757 0.03771415 -0.049048986 -0.025353717
0003c0 49 37 e3 3c 7b 92 17 3d 7b 6e 34 bc 73 c2 30 3c
       0.027736323 0.03700493 -0.011012669 0.010788548
0003d0 b2 cd 64 bd 8d 2d 78 3c b6 8e 5a 3d 55 e6 0a 3d
       -0.05586023 0.015147579 0.053358756 0.033911068
0003e0 e8 55 83 3d 4c ec 57 3d 39 96 40 3d 3f 04 6e bc
       0.0641287 0.052715585 0.047018263 -0.01452738
0003f0 05 44 85 bc 87 70 f7 3c bf 58 65 3d 11 34 65 bd
       -0.016267786 0.030205024 0.055992838 -0.055957858

weight f4 [6, 512]
000000 8c a0 1a 3d fc 3f 40 bd c4 46 79 bc 1e f0 2b bc
       0.037750766 -0.04693602 -0.015214626 -0.01049426
000010 7f b4 8d bd 48 34 35 3c 38 1b 75 bc 8c c4 19 3c
       -0.069191925 0.011059828 -0.014960103 0.009385239
000020 ad 21 95 bc 48 1d b1 3d bf 99 8e 3c 75 66 ff 3d
       -0.018204534 0.08648163 0.017407296 0.12470714
000030 db a2 27 bc 1c 34 34 3e f5 e3 e5 bc 59 b4 96 bc
       -0.010231699 0.17598003 -0.0280628 -0.018396543
000040 85 27 df bb 59 ee 6e 3d 09 1e 85 3d 79 1b 48 bc
       -0.006810131 0.058332775 0.064998694 -0.012213581
000050 3d 90 63 3d 63 a0 cf 3d 60 39 25 bc 99 0d dd bc
       0.05555748 0.10138013 -0.01008448 -0.026984023
000060 15 e7 0a 3e 07 ff 28 3c 99 91 16 3d fc ee 10 bd
       0.13564713 0.0103147095 0.036759946 -0.035384163
000070 ea 40 66 bc 7c af 4c bd 7e 32 93 3c e2 f9 93 ba
       -0.014053563 -0.049972042 0.017968412 -0.0011289681
000080 68 5a 2c 3e 52 86 8b 3d 63 d9 d9 3c a3 85 74 bc
       0.16831362 0.06812729 0.026592916 -0.01492444
000090 fd 1f 24 bb dc 82 25 bd 79 97 7a bd 2d 3d 19 bd
       -0.002504348 -0.040408 -0.06117961 -0.037411857
0000a0 c2 76 79 bd f0 87 c9 bc c2 0d e3 3c e3 d9 a8 3d
       -0.060904272 -0.024600953 0.027716521 0.082446836
0000b0 f9 2b fc 3b c2 d9 1f bb ff 1a 48 bd 88 a4 25 bc
       0.0076956716 -0.0024391268 -0.04885387 -0.010110028
0000c0 ff 3b 2e bd c0 dd ae bd b1 0b b7 3b 22 7d 02 3d
       -0.042537685 -0.08538389 0.0055861105 0.031857617
0000d0 08 26 e1 3d 4c 4c e0 b8 f0 4c e5 bb 7d aa 2e bc
       0.10993582 -0.00010695364 -0.006997697 -0.010660765
0000e0 39 8c f3 bd a5 38 66 bd 63 65 43 bd e6 2a 0f bc
       -0.1189198 -0.056206364 -0.04770411 -0.008738255
0000f0 9a f3 5e 3c 37 43 9b 3d e2 d1 1e bd 2c 30 6c 3c
       0.013607884 0.075811796 -0.03877438 0.014415782
000100 74 d1 3d 3c dd 5d f0 bc 8e 20 44 bd cf 54 c2 3c
       0.011585582 -0.029341633 -0.04788261 0.02372208
000110 8b ef 83 bc 98 f5 5d bc d7 21 d2 3d 40 01 54 3b
       -0.016105434 -0.013547324 0.10260361 0.0032349378
000120 ad 52 8b 3c 94 ed 3e 3c 5e 16 62 3d 33 cb b1 3c
       0.017007196 0.011653323 0.055197112 0.021703338
000130 f7 2e 11 3d f7 46 8b 3c 53 6e 02 bc ff 88 7a bb
       0.03544518 0.017001612 -0.007960874 -0.0038228629
000140 96 b6 da bc f9 5c d5 3d ec e0 b5 3d 72 a1 ca bc
       -0.026698392 0.10418124 0.08880791 -0.024735186
000150 4a 39 14 bd f7 d5 a8 bc d1 06 ec 3c 16 c3 50 bd
       -0.036187448 -0.020609839 0.028811844 -0.0509673
000160 6f 39 ef bc d0 a6 16 3c f1 93 6d bd ec 55 7e bd
       -0.029202191 0.009195045 -0.058002416 -0.06209366
000170 43 b9 55 3c b0 a0 0d be 21 78 44 bb a3 2f 34 3c
       0.013044658 -0.13830829 -0.002997883 0.010997686
000180 99 41 b8 bc 7d 53 05 bd 0b 69 fe 3c b9 f8 27 bd
       -0.022492217 -0.032550324 0.031055948 -0.041008685
000190 02 2f 70 3d ac e2 6a 3d cc 4d 5d bd 87 4a 87 3d
       0.05863858 0.057345077 -0.05402927 0.06606012
0001a0 b2 bf 01 bd 15 61 d8 3c d8 90 e5 3d 43 9a 83 3c
       -0.031676956 0.02641348 0.112092674 0.016064769
0001b0 84 25 5b 3d c4 d9 4e bd df a3 26 bd dd 70 7e 3d
       0.053502575 -0.050500646 -0.040683623 0.062119354
0001c0 ec f1 0b 3d 09 67 b1 bd d6 31 93 bd f5 47 93 bb
       0.03416626 -0.086622305 -0.0718724 -0.004494662
0001d0 d6 80 33 3d c0 42 86 bd e4 ac 70 bd 76 44 9e 3d
       0.04382404 -0.065557 -0.05875863 0.07727902
0001e0 f3 95 e5 bd 28 77 f0 3b 4a c0 8e 3b 3c 5e 54 bc
       -0.11210241 0.0073384233 0.0043564187 -0.01296192
0001f0 bc 01 24 3c 25 50 6e 3a 8a 0b 32 3b 45 73 5f bd
       0.010010179 0.0009090922 0.0027167522 -0.05455329
000200 71 5d 94 3d 52 92 55 3c 3c 81 c2 bd 7e 1f 1f bc
       0.07244385 0.013035374 -0.09497306 -0.009712098
000210 cb 11 ff bc 97 77 20 bd 81 9b 9c 3c 0f f1 1a 3d
       -0.031136414 -0.03917655 0.019117119 0.037827548
000220 26 1a 55 3d f1 7b 41 3c 63 27 47 3e 2d 83 88 bd
       0.05202689 0.011809335 0.19448619 -0.06665645
000230 a0 5f 4e 3d 56 fe 10 bd 41 db 69 bb b4 a4 cb 3b
       0.050384164 -0.035398804 -0.0035683664 0.0062147025
000240 7b 4b 3b 3d d3 5f 9a bd 92 02 dd 3d 39 35 4b bd
       0.04572628 -0.07537808 0.10791506 -0.049611304
000250 95 5a 6c 3d 82 14 d0 bb 0f 0e 05 3d 51 a6 2c 3e
       0.057703573 -0.006350101 0.03248411 0.1686032
000260 08 f1 ef 3c 9d 4a a4 bc 31 ad 61 3c ca f2 2d bd
       0.029289737 -0.02005511 0.013774202 -0.04246787
000270 7e 09 8a bc d0 b2 13 3d d7 06 ca 3c 46 98 81 bd
       -0.01685023 0.0360592 0.024661465 -0.06327872
000280 c1 f7 69 bc d8 24 9f bc 65 c7 58 3d 3d 85 1d 3b
       -0.014280261 -0.019426748 0.052924532 0.0024035715
000290 0a 74 2d 3e 4b d8 b4 bc 23 d3 14 bb f1 e1 04 3d
       0.16938797 -0.022075793 -0.0022708855 0.032442037
0002a0 35 28 c7 3b 25 8a c8 3d 09 ea 55 bd 79 66 91 bd
       0.006077791 0.09791974 -0.052225146 -0.07099623
0002b0 28 68 86 bc c8 b7 9e 3d 44 3f 2f 3d 4d e6 93 3d
       -0.016407087 0.07749897 0.042784944 0.07221661
0002c0 ff 9d 9c bc 4c 4c ad bb 58 a8 54 bd 7b 70 f7 3b
       -0.019118307 -0.0052886363 -0.051918358 0.0075512505
0002d0 c8 bf 10 3c 40 5a cc 3c fb 65 94 bc ee 1c 92 3c
       0.008834787 0.024945378 -0.018115034 0.01783606
0002e0 df 61 ae bc 14 a0 48 bd 5f 31 d1 3c eb 52 14 3e
       -0.021286903 -0.048980787 0.025536237 0.14484756
0002f0 c3 56 ec bc 72 28 e8 3d 60 78 95 3d cd ae b9 bb
       -0.028849965 0.11335839 0.0729835 -0.00566659
000300 d2 dc a0 bd 7d c4 17 3b 58 d4 9e bd 11 4f 7a bd
       -0.07854618 0.0023157888 -0.07755345 -0.06111056
000310 ee 2e 48 bb 67 c2 34 bd 76 65 18 bd 95 aa 43 bd
       -0.003054555 -0.04413071 -0.037206136 -0.0477701
000320 42 18 4d bd 69 7f 82 3d 1e 52 09 3d 2d df 7c 3d
       -0.050071962 0.06371958 0.03352558 0.061736275
000330 c9 15 64 bd cb 6d 4d 3d 45 96 c6 bc e7 95 50 3b
       -0.05568484 0.050153535 -0.024241576 0.003182763
000340 5c da d2 bd 6b 90 b0 3d 2b 87 04 bd 43 70 39 bd
       -0.10295555 0.086212955 -0.03235547 -0.045273077
000350 d7 3a 1c bd 57 d2 06 bd 02 fc 1e 3d 56 1d c3 bd
       -0.03814205 -0.03291544 0.038814552 -0.0952708
000360 cd 72 02 bd cf 73 81 bc b3 1b 2f 3e a0 f1 e2 3c
       -0.031847764 -0.015802292 0.1710041 0.027703106
000370 34 c8 6e bd e1 ce 25 bd 67 a1 29 bd 39 cc e7 3c
       -0.058296397 -0.0404805 -0.04141369 0.028295623
000380 01 01 49 3c 17 95 4a bc b2 38 36 bb e3 04 dc bc
       0.012268306 -0.012364647 -0.002780479 -0.026857799
000390 1f 1a 88 3c a0 91 80 3d b7 2a b8 3d c7 72 c8 ba
       0.016614018 0.06277776 0.08992522 -0.0015292995
0003a0 55 3c 3c bc a0 1d c3 bd 43 3b 16 bd 95 64 5e 3d
       -0.011488994 -0.09527135 -0.03667761 0.05429514
0003b0 a0 86 10 bd 7e 64 1c 3d 0e 7b 76 bb 6a 7f 89 3a
       -0.03528464 0.038181774 -0.0037609967 0.0010490243
0003c0 25 be c9 3d 78 a9 af 3c b1 a7 e6 3d af 12 29 bd
       0.0985072 0.021443114 0.11262453 -0.041277584
0003d0 cd e8 4f 3c 3c 1b 15 bd be ee aa bc 1a 53 bc 3c
       0.012689781 -0.036402926 -0.020865794 0.022988845
0003e0 33 0b 40 bc 58 82 f6 3b b7 62 3c bc 7d 49 e2 bc
       -0.01172142 0.0075228624 -0.011498145 -0.027622933
0003f0 e1 0e 36 bd 75 2c 89 3d ee d2 fc 3d 6c fd 00 3d
       -0.044447783 0.06697933 0.12344919 0.031491682

bias f4 [6]
000000 66 d7 fe 3d c8 a7 73 3d b3 80 c1 3c a6 5e 27 3e
       0.12443428 0.05948618 0.023620939 0.163447
000010 33 aa 59 be 44 49 57 be
       -0.21256332 -0.21024042
